…

Input (C channels) Input tensor shape: [B, 256, 56, 56] 
   |
[1x1 Conv] (reduce channels) 1×1 Conv	256 → 64 (Compression)
   |
[3x3 Conv]	3×3 Conv	64 → 64  (Spatial feature extraction)
   |
[1x1 Conv] (expand channels)	1×1 Conv	64 → 512 (Expansion)
   |
+----> Add input (1×1 Conv	256 → 512 ) The residual (skip) connection also downscales from 256 → 512 channels using downsample
   |
Output (C channels)

Residual Block ကို အသုံးပြုပြီးတော့ Google ImageNet, CoCo dataset တွေနဲ့ CIFR-10 တို့ မှာပါ စမ်းသပ်ခဲ့ပြီး 

----------------------------------------------------------------

ResNet(
  (conv1): Conv2d(3, 64, kernel_size=(7, 7), stride=(2, 2), padding=(3, 3), bias=False)
  (bn1): BatchNorm2d(64, eps=1e-05, momentum=0.1, affine=True, track_running_stats=True)
  (relu): ReLU(inplace=True)
  (maxpool): MaxPool2d(kernel_size=3, stride=2, padding=1, dilation=1, ceil_mode=False)
  (layer1): Sequential(
    (0): Bottleneck(
      (conv1): Conv2d(64, 64, kernel_size=(1, 1), stride=(1, 1), bias=False)
      (bn1): BatchNorm2d(64, eps=1e-05, momentum=0.1, affine=True, track_running_stats=True)
      (conv2): Conv2d(64, 64, kernel_size=(3, 3), stride=(1, 1), padding=(1, 1), bias=False)
      (bn2): BatchNorm2d(64, eps=1e-05, momentum=0.1, affine=True, track_running_stats=True)
      (conv3): Conv2d(64, 256, kernel_size=(1, 1), stride=(1, 1), bias=False)
      (bn3): BatchNorm2d(256, eps=1e-05, momentum=0.1, affine=True, track_running_stats=True)
      (relu): ReLU(inplace=True)
      (downsample): Sequential(
        (0): Conv2d(64, 256, kernel_size=(1, 1), stride=(1, 1), bias=False)
        (1): BatchNorm2d(256, eps=1e-05, momentum=0.1, affine=True, track_running_stats=True)
      )
    )
  ) 
  (avgpool): AdaptiveAvgPool2d(output_size=(1, 1))
  (fc): Linear(in_features=2048, out_features=1000, bias=True)
)